…
68\n","Epoch 10/10\n","198/198 [==============================] - 373s 2s/step - loss: 0.0252 - accuracy: 0.8999 - val_loss: 0.3003 - val_accuracy: 0.5944\n"]},{"output_type":"display_data","data":{"text/plain":["<Figure size 1200x400 with 2 Axes>"],"image/png":"…\n"},"metadata":{}},{"output_type":"stream","name":"stdout","text":["Model: \"sequential_2\"\n","_________________________________________________________________\n"," Layer (type)                Output Shape              Param #   \n","=================================================================\n"," conv2d_10 (Conv2D)          (None, 128, 128, 32)      896       \n","                                                                 \n"," leaky_re_lu (LeakyReLU)     (None, 128, 128, 32)      0         \n","                                                                 \n"," max_pooling2d_6 (MaxPoolin  (None, 64, 64, 32)        0         \n"," g2D)                                                            \n","                                                                 \n"," conv2d_11 (Conv2D)          (None, 64, 64, 64)        18496     \n","                                                                 \n"," leaky_re_lu_1 (LeakyReLU)   (None, 64, 64, 64)        0         \n","                                                                 \n"," max_pooling2d_7 (MaxPoolin  (None, 32, 32, 64)        0         \n"," g2D)                                                            \n","                                                                 \n"," conv2d_12 (Conv2D)          (None, 32, 32, 128)       73856     \n","                                                                 \n"," leaky_re_lu_2 (LeakyReLU)   (None, 32, 32, 128)       0         \n","                                                                 \n"," batch_normalization_4 (Bat  (None, 32, 32, 128)       512       \n"," chNormalization)                                                \n","                                                                 \n"," max_pooling2d_8 (MaxPoolin  (None, 16, 16, 128)       0         \n"," g2D)                                                            \n","                                                                 \n"," flatten_2 (Flatten)         (None, 32768)             0         \n","                                                                 \n"," dense_4 (Dense)             (None, 256)               8388864   \n","                                                                 \n"," leaky_re_lu_3 (LeakyReLU)   (None, 256)               0         \n","                                                                 \n"," dropout_4 (Dropout)         (None, 256)               0         \n","                                                                 \n"," dense_5 (Dense)             (None, 10)                2570      \n","                                                                 \n","=================================================================\n","Total params: 8485194 (32.37 MB)\n","Trainable params: 8484938 (32.37 MB)\n","Non-trainable params: 256 (1.00 KB)\n","_________________________________________________________________\n"]}],"source":["# Persiapan data dengan ImageDataGenerator\n","#
…
26\n","Epoch 10/10\n","198/198 [==============================] - 439s 2s/step - loss: 0.0710 - accuracy: 0.8139 - val_loss: 0.3210 - val_accuracy: 0.4911\n"]},{"output_type":"display_data","data":{"text/plain":["<Figure size 1200x400 with 2 Axes>"],"image/png":"…\n"},"metadata":{}},{"output_type":"stream","name":"stdout","text":["Model: \"sequential_3\"\n","_________________________________________________________________\n"," Layer (type)                Output Shape              Param #   \n","=================================================================\n"," conv2d_13 (Conv2D)          (None, 128, 128, 32)      896       \n","                                                                 \n"," leaky_re_lu_4 (LeakyReLU)   (None, 128, 128, 32)      0         \n","                                                                 \n"," max_pooling2d_9 (MaxPoolin  (None, 64, 64, 32)        0         \n"," g2D)                                                            \n","                                                                 \n"," conv2d_14 (Conv2D)          (None, 64, 64, 64)        18496     \n","                                                                 \n"," leaky_re_lu_5 (LeakyReLU)   (None, 64, 64, 64)        0         \n","                                                                 \n"," max_pooling2d_10 (MaxPooli  (None, 32, 32, 64)        0         \n"," ng2D)                                                           \n","                                                                 \n"," conv2d_15 (Conv2D)          (None, 32, 32, 128)       73856     \n","                                                                 \n"," leaky_re_lu_6 (LeakyReLU)   (None, 32, 32, 128)       0         \n","                                                                 \n"," batch_normalization_5 (Bat  (None, 32, 32, 128)       512       \n"," chNormalization)                                                \n","                                                                 \n"," max_pooling2d_11 (MaxPooli  (None, 16, 16, 128)       0         \n"," ng2D)                                                           \n","                                                                 \n"," conv2d_16 (Conv2D)          (None, 16, 16, 256)       295168    \n","                                                                 \n"," leaky_re_lu_7 (LeakyReLU)   (None, 16, 16, 256)       0         \n","                                                                 \n"," batch_normalization_6 (Bat  (None, 16, 16, 256)       1024      \n"," chNormalization)                                                \n","                                                                 \n"," max_pooling2d_12 (MaxPooli  (None, 8, 8, 256)         0         \n"," ng2D)                                                           \n","                                                                 \n"," flatten_3 (Flatten)         (None, 16384)             0         \n","                                                                 \n"," dense_6 (Dense)             (None, 512)               8389120   \n","                                                                 \n"," leaky_re_lu_8 (LeakyReLU)   (None, 512)               0         \n","                                                                 \n"," dropout_5 (Dropout)         (None, 512)               0         \n","                                                                 \n"," dense_7 (Dense)             (None, 256)               131328    \n","                                                                 \n"," leaky_re_lu_9 (LeakyReLU)   (None, 256)               0         \n","                                                                 \n"," dropout_6 (Dropout)         (None, 256)               0         \n","                                                                 \n"," dense_8 (Dense)             (None, 10)                2570      \n","                                                                 \n","=================================================================\n","Total params: 8912970 (34.00 MB)\n","Trainable params: 8912202 (34.00 MB)\n","Non-trainable params: 768 (3.00 KB)\n","_________________________________________________________________\n"]}]},{"cell_type":"code","source":["datagen = ImageDataGenerato
…
1\n","Epoch 10/10\n","198/198 [==============================] - 1720s 9s/step - loss: 0.1044 - accuracy: 0.7563 - val_loss: 0.3577 - val_accuracy: 0.5230\n"]},{"output_type":"display_data","data":{"text/plain":["<Figure size 1200x400 with 2 Axes>"],"image/png":"…\n"},"metadata":{}},{"output_type":"stream","name":"stdout","text":["Model: \"sequential_1\"\n","_________________________________________________________________\n"," Layer (type)                Output Shape              Param #   \n","=================================================================\n"," conv2d_3 (Conv2D)           (None, 128, 128, 3)       84        \n","                                                                 \n"," conv2d_4 (Conv2D)           (None, 126, 126, 128)     3584      \n","                                                                 \n"," batch_normalization_1 (Bat  (None, 126, 126, 128)     512       \n"," chNormalization)                                                \n","                                                                 \n"," max_pooling2d_3 (MaxPoolin  (None, 42, 42, 128)       0         \n"," g2D)                                                            \n","                                                                 \n"," conv2d_5 (Conv2D)           (None, 40, 40, 256)       295168    \n","                                                                 \n"," dropout_1 (Dropout)         (None, 40, 40, 256)       0         \n","                                                                 \n"," conv2d_6 (Conv2D)           (None, 20, 20, 256)       590080    \n","                                                                 \n"," batch_normalization_2 (Bat  (None, 20, 20, 256)       1024      \n"," chNormalization)                                                \n","                                                                 \n"," max_pooling2d_4 (MaxPoolin  (None, 10, 10, 256)       0         \n"," g2D)                                                            \n","                                                                 \n"," conv2d_7 (Conv2D)           (None, 10, 10, 512)       1180160   \n","                                                                 \n"," dropout_2 (Dropout)         (None, 10, 10, 512)       0         \n","                                                                 \n"," conv2d_8 (Conv2D)           (None, 10, 10, 1024)      2098176   \n","                                                                 \n"," batch_normalization_3 (Bat  (None, 10, 10, 1024)      4096      \n"," chNormalization)                                                \n","                                                                 \n"," max_pooling2d_5 (MaxPoolin  (None, 5, 5, 1024)        0         \n"," g2D)                                                            \n","                                                                 \n"," flatten_1 (Flatten)         (None, 25600)             0         \n","                                                                 \n"," dense_2 (Dense)             (None, 1024)              26215424  \n","                                                                 \n"," dropout_3 (Dropout)         (None, 1024)              0         \n","                                                                 \n"," dense_3 (Dense)             (None, 10)                10250     \n","                                                                 \n","=================================================================\n","Total params: 30398558 (115.96 MB)\n","Trainable params: 30395742 (115.95 MB)\n","Non-trainable params: 2816 (11.00 KB)\n","_________________________________________________________________\n"]}]}]}